model/ConvNet.pt (torch_old, 99459 bytes, 8 tensors)

weight f4 [10, 1, 5, 5]
-0.1969148 0.1611583 0.28550386 -0.19951664 -0.32020622 -0.14366525 0.110267386 0.35381895
0.16471206 -0.09502596 -0.16124085 0.03885769 0.17701213 -0.03270905 -0.21334468 0.01433039
-0.1451977 0.28671175 0.21816786 -0.0075377184 0.1300841 -0.08767969 0.0684588 0.08115362
-0.02798525 0.0025000717 0.008356657 0.14972277 0.18062015 -0.14155185 -0.08741826 -0.107524246
-0.0058961525 0.05150114 -0.20681022 -0.13130875 0.1328394 -0.003205628 -0.21909478 -0.23081912
0.005620491 -0.21504931 -0.15273912 -0.008177101 0.05153266 -0.21576415 -0.20914245 -0.054083947
-0.033935938 -0.17768212 -0.07373327 -0.15575133 -0.18218277 -0.10437726 -0.21393134 -0.20017369
0.061795942 0.13062426 -0.08694395 -0.003415215 -0.10955596 -0.01776231 0.05309504 -0.06681573
-0.22072692 -0.1492994 -0.026888046 -0.18718767 -0.008215486 -0.05232157 0.14007694 -0.004948591
-0.11900142 -0.093201056 -0.036808003 -0.06475067 -0.16062018 -0.13360132 -0.3016882 -0.054795388
0.16497587 -0.14545535 -0.081571564 -0.2816185 -0.061888494 -0.07245668 -0.187765 -0.10743448
-0.1512988 0.14871709 0.094598815 0.08128175 0.27107745 0.50887257 0.3484267 0.36235824
0.45079497 0.40335017 0.3140014 0.21187392 -0.16488321 -0.06430137 -0.07345856 0.19735225
0.14174552 -0.060110603 0.125574 -0.17137937 0.018355977 -0.16680631 -0.2010826 0.1882265
-0.09185316 0.18864134 0.060327712 0.027529942 -0.0021759802 -0.049954202 0.0145284515 -0.17317863
0.07678017 -0.059420075 -0.18859379 0.13813883 0.09196953 -0.21124293 -0.2097097 -0.018498642
0.08153594 0.23625335 -0.20697221 -0.16829963 -0.0147034 0.35642394 0.28772968 0.10172045
0.29813492 0.44878206 0.09289742 0.117698595 0.23000054 0.2200012 -0.008829363 -0.06669592
0.10033611 0.09191212 0.061581824 0.04517231 -0.24076869 -0.20751435 -0.055474035 -0.076034516
0.118278734 0.20190078 -0.01596856 -0.23204076 -0.11899976 -0.1353884 0.21604113 0.26423138
-0.07605283 -0.25661 0.026273545 0.22983368 0.1689478 -0.25796068 -0.2112557 0.18177663
0.36223835 0.16144134 -0.2536498 0.12963338 0.39647293 0.28140932 -0.18694755 0.01266069
0.15577428 0.08032995 0.304219 0.18032256 0.2709313 0.33302766 0.30225337 -0.023544895
0.15050894 0.15605149 0.09169541 0.31876615 0.26567215 0.027398534 -0.16569164 0.18497138
0.11701617 -0.1620417 -0.09924786 -0.0400244 0.04180521 0.22758259 0.034575455 0.12915139
0.4154381 0.42542768 0.37930825 -0.048079636 -0.015804969 0.2554634 0.4539642 0.48072422
0.23058686 -0.01536213 -0.40146956 -0.1805899 0.21698098 0.26998687 0.31305957 -0.24998446
-0.34816182 -0.055882115 0.07302379 0.07011442 -0.013946254 -0.1653559 -0.10516649 0.14277212
-0.13931526 0.16457228 0.15945104 0.19289355 0.15633632 -0.04874973 -0.120879725 0.13321757
0.098637536 0.22311366 0.15032922 0.12572017 0.4020987 0.52302766 0.30086583 -0.17540416
0.14330657 0.5222526 0.53438735 0.26472712 -0.19568944 -0.01922504 0.29831928 0.28125453
0.28197157 -0.12907629
00000000: 09a4 49be ae06 253e 902d 923e 174e 4cbe
00000010: 12f2 a3be fc1c 13be ded3 e13d c227 b53e
00000020: 47aa 283e f89c c2bd 521c 25be 3e29 1f3d
00000030: ab42 353e edf9 05bd 0777 5abe 03ca 6a3c
00000040: b5ae 14be e2cb 923e 6567 5f3e f7fe f6bb
00000050: c434 053e 6991 b3bd 2134 8c3d de33 a63d
00000060: 5341 e5bc 3ed8 233b 5cea 083c ed50 193e
00000070: 7df4 383e f8f2 10be 5808 b3bd ac35 dcbd
00000080: 8334 c1bb dcf2 523d 0fc6 53be cd75 06be
00000090: 0d07 083e 8315 52bb 625a 60be d95b 6cbe
000000a0: 192c b83b e335 5cbe a567 1cbe 3ff9 05bc
000000b0: e913 533d 47f1 5cbe 7029 56be 2187 5dbd
000000c0: 6900 0bbd 4df2 35be 7801 97bd 477d 1fbe
000000d0: 1f8e 3abe bfc3 d5bd d110 5bbe 55fa 4cbe
000000e0: be1d 7d3d 5ec2 053e ab0f b2bd cdd1 5fbb
000000f0: e05e e0bd 4482 91bc 2f7a 593d afd6 88bd
00000100: 3d06 62be f1e1 18be 5244 dcbc 20ae 3fbe
00000110: 3f9a 06bc 254f 56bd 5470 0f3e ca27 a2bb
00000120: 04b7 f3bd 32e0 bebd fdc3 16bd 009c 84bd
00000130: 9e79 24be c9ce 08be e076 9abe 2171 60bd
00000140: 6fef 283e 3ff2 14be fe0e a7bd 4d30 90be
00000150: ca7e 7dbd 2b64 94bd 7845 40be 9c06 dcbd
00000160: 13ee 1abe 4b49 183e 06bd c13d 0c77 a63d
00000170: aaca 8a3e 7945 023f fc64 b23e 0587 b93e
00000180: 99ce e63e ea83 ce3e cbc4 a03e 7af5 583e
00000190: 25d7 28be 70b0 83bd 7171 96bd b516 4a3e
000001a0: bd25 113e 8936 76bd 7896 003e 137e 2fbe
000001b0: 465f 963c 46cf 2abe 99e8 4dbe 73be 403e
000001c0: 821d bcbd 322b 413e 311a 773d 7986 e13c
000001d0: e49a 0ebb c79c 4cbd be08 6e3c bd55 31be
000001e0: ec3e 9d3d 7762 73bd bb1e 41be 4474 0d3e
000001f0: 855a bc3d 1150 58be 24be 56be 778a 97bc
00000200: 51fc a63d 66ec 713e 86f0 53be bd56 2cbe
00000210: 88e6 70bc 337d b63e 4e51 933e d052 d03d
00000220: 24a5 983e c3c6 e53e 0141 be3d f60b f13d
00000230: 4385 6b3e ff47 613e 08a9 10bc df97 88bd
00000240: 057d cd3d 6c3c bc3d 393d 7c3d 9a06 393d
00000250: 118c 76be a47e 54be be38 63bd fcb7 9bbd
00000260: 1f3c f23d 14bf 4e3e 7fd0 82bc 189c 6dbe
00000270: 25b6 f3bd 42a3 0abe e339 5d3e 5649 873e
00000280: 96c1 9bbd 6362 83be 9e3b d73c 8559 6b3e
00000290: a700 2d3e 6c13 84be 6a53 58be a723 3a3e
000002a0: 4e77 b93e e150 253e 63de 81be 9dbe 043e
000002b0: 80fe ca3e e214 903e 2e6f 3fbe c86e 4f3c
000002c0: 4b83 1f3e 0784 a43d 98c2 9b3e 7aa6 383e
000002d0: 82b7 8a3e 9a82 aa3e f4c0 9a3e 39e1 c0bc
000002e0: 041f 1a3e f6cb 1f3e ceca bb3d 5135 a33e
000002f0: 2e06 883e e472 e03c 12ab 29be 2369 3d3e
00000300: 2ca6 ef3d 42ee 25be 7642 cbbd a0f0 23bd
00000310: f13b 2b3d 690b 693e fe9e 0d3d 4340 043e
00000320: 4db4 d43e a8d1 d93e b134 c23e 27ef 44bd
00000330: 6c79 81bc 19cc 823e ff6d e83e 7c21 f63e
00000340: f61e 6c3e 71b1 7bbc 6b8d cdbe 8fec 38be
00000350: 4330 5e3e b83b 8a3e 5849 a03e edfb 7fbe
00000360: 4442 b2be a5e4 64bd 7f8d 953d 2698 8f3d
00000370: d47e 64bc 0f53 29be 8761 d7bd db32 123e
00000380: a9a8 0ebe a385 283e 2247 233e e385 453e
00000390: a116 203e ccad 47bd ca8f f7bd 306a 083e
000003a0: 7a02 ca3d e877 643e e7ef 193e cabc 003e
000003b0: e1df cd3e 24e5 053f 160b 9a3e 269d 33be
000003c0: f5be 123e 59b2 053f 9ccd 083f 508a 873e
000003d0: d062 48be d57d 9dbc 4ebd 983e 9800 903e
000003e0: 945e 903e 932c 04be

bias f4 [10]
-0.027749462 -0.050105132 0.09213501 0.23474365 0.099320605 0.255276 -0.17276089 -0.07992176
0.19053043 0.31618798
00000000: d752 e3bc 0a3b 4dbd 48b1 bc3d a460 703e
00000010: 9a68 cb3d 89b3 823e 3be8 30be 05ae a3bd
00000020: 691a 433e 64e3 a13e

weight f4 [20, 10, 5, 5]
-0.061008174 0.08509312 -0.052780923 0.028718177 -0.05060201 -0.037110098 0.053843167 0.0126113705
0.06843004 -0.019968083 -0.085565336 -0.009814661 0.11715401 0.022221934 0.038061187 -0.0075878114
0.0051819016 0.06271352 0.091574766 0.05484723 -0.04258122 0.021105919 -0.03397592 0.024523359
-0.0074448693 0.045715988 -0.03492236 -0.023189174 0.0069972873 -0.055181514 -0.013360319 0.038663685
-0.03753495 -0.0033830192 -0.056107454 0.029179502 0.033177618 -0.075364225 -0.033716686 -0.07055682
0.0573035 -0.022731379 -0.021488598 0.039060365 -0.07371647 -0.045981098 0.03459893 -0.0678411
-0.047129076 0.046976335 -0.020813113 -0.042357545 0.036804907 0.04078462 -0.051665027 -0.042407572
0.010071143 0.04509114 -0.042506963 0.0078051756 0.021285627 0.030784717 -0.012800317 -0.036250625
-0.0144965695 0.06183007 0.023801401 0.020865437 0.03123526 0.014976181 -0.010550851 -5.4564184e-06
-0.05349038 0.029287279 -0.02867919 -0.017203864 0.05187633 0.06566388 -0.032473084 -0.06203421
-0.09504073 -0.045882817 0.053667188 -0.03804025 -0.05127152 -0.046337865 -0.11651025 -0.032424495
0.033925343 0.043374486 -0.012380184 -0.068511575 -0.10695282 -0.07734528 -0.012505891 0.051921908
0.015510016 0.01402168 -0.06320291 -0.035838928 0.004420321 -0.031678014 -0.074233145 0.020928003
0.04619793 -0.03738594 -0.06850666 0.023562731 -0.02317782 -0.04067559 0.05021529 0.04151294
-0.058622506 -0.018266836 0.047454517 -0.03475155 -0.017326795 -0.031448524 0.034340303 -0.0624367
0.0053327256 0.04259685 0.06252907 0.04277476 -0.04041818 0.0076767583 -0.07348203 -0.009922079
-0.017526342 -0.0067693302 0.054091826 0.026436772 -0.0035581803 -0.06949151 0.023916747 0.014194788
-0.016306642 -0.05100723 -0.01872738 -0.06577795 -0.023829106 0.04942111 0.09103411 -0.07386451
-0.09736924 -0.02107663 0.0006402639 0.06914529 0.0033892652 -0.0573064 -0.0075707072 -0.08622935
-0.11096953 -0.084009744 0.012343398 -0.011034025 -0.0031103697 -0.06552265 0.029849075 -0.052622836
0.015701095 -0.043427497 -0.013007959 -0.067162745 -0.07250314 -0.03561054 0.018273734 -0.014490814
0.090874724 0.03467452 0.009152222 -0.022261001 0.04364587 0.010992038 0.021838222 0.042140618
0.042310014 0.0227468 -0.0376651 -0.07156683 0.048918582 0.081168324 0.0032399723 0.07704744
0.019039756 -0.0783333 -0.05847341 0.07379738 0.10224757 -0.08317297 -0.05927246 -0.10294496
-0.06680025 0.06161202 -0.019000689 -0.02340184 -0.06235344 -0.023158265 -0.016746676 -0.037368085
0.01624878 0.0013712283 -0.04253147 -0.08591131 -0.058943126 0.08545406 0.11136437 0.15519902
0.009674231 -0.041950457 0.02923812 0.16394435 0.22012426 0.12485258 -0.0014333484 -0.13788459
-0.12506673 0.05112002 0.19871047 0.13675748 -0.01686941 -0.14614247 -0.14434032 0.049563523
0.11286812 0.0014998179 0.09750995 0.036136363 -0.078707255 -0.16069515 -0.07172256 0.12360915
0.08582346 0.14761488 -0.118554294 -0.08958001 -0.06193883 -0.028150368 0.10855507 0.031749062
-0.124959044 -0.09792871 -0.022713747 0.07049136 0.05135677 0.030752674 -0.031000694 -0.047269877
-0.044090852 0.026993765 -0.0070599364 0.049669784 -0.013717913 -0.049526762 -0.045341633 0.020541571
00000000: b5e3 79bd 4d45 ae3d cf30 58bd 6242 eb3c
00000010: 0e44 4fbd c200 18bd a78a 5c3d ec9f 4e3c
00000020: 0c25 8c3d 1b94 a3bc e13c afbd accd 20bc
00000030: 71ee ef3d c60a b63c 0ce6 1b3d 2da3 f8bb
00000040: f1cc a93b f26f 803d 8d8b bb3d 7da7 603d
00000050: a569 2ebd 52e6 ac3c 562a 0bbd 36e5 c83c
00000060: 17f4 f3bb b040 3b3d c00a 0fbd 39f7 bdbc
00000070: 8049 e53b 0306 62bd 3de5 5abc d05d 1e3d
00000080: 3fbe 19bd a5b5 5dbb eed0 65bd da09 ef3c
00000090: 41e5 073d 8f58 9abd 821a 0abd 1880 90bd
000000a0: 13b7 6a3d 2837 babc db08 b0bc c3fd 1f3d
000000b0: a9f8 96bd ad56 3cbd 9cb7 0d3d 46f0 8abd
000000c0: 6b0a 41bd 426a 403d 4380 aabc 1b7f 2dbd
000000d0: bec0 163d c60d 273d b59e 53bd 90b3 2dbd
000000e0: 6f01 253c 7db1 383d c81b 2ebd 8fc2 ff3b
000000f0: 325f ae3c 3b30 fc3c 6cb8 51bc 897b 14bd
00000100: 0583 6dbc 8741 7d3d 28fb c23c feed aa3c
00000110: 17e1 ff3c a85e 753c 7add 2cbc 4716 b7b6
00000120: bb18 5bbd e0eb ef3c 9ff0 eabc 1eef 8cbc
00000130: 467c 543d c97a 863d 7f02 05bd 9517 7ebd
00000140: b7a4 c2bd 9fef 3bbd 20d2 5b3d 18d0 1bbd
00000150: 1602 52bd c6cc 3dbd ed9c eebd 8ccf 04bd
00000160: 4df5 0a3d 72a9 313d 41d6 4abc cc4f 8cbd
00000170: 150a dbbd 3467 9ebd 82e5 4cbc 11ac 543d
00000180: b91d 7e3c 30bb 653c 8770 81bd d7cb 12bd
00000190: 57d8 903b cec0 01bd 8c07 98bd 3471 ab3c
000001a0: 0a3a 3d3d 0022 19bd 384d 8cbd a106 c13c
000001b0: 69df bdbc 739b 26bd 8cae 4d3d 7909 2a3d
000001c0: 271e 70bd 55a4 95bc ab5f 423d a457 0ebd
000001d0: ecf0 8dbc 2bd0 00bd 6ba8 0c3d a0bd 7fbd
000001e0: 25be ae3b 097a 2e3d 3e0f 803d 9634 2f3d
000001f0: 898d 25bd 518d fb3b bf7d 96bd 3790 22bc
00000200: 6793 8fbc 42d1 ddbb 648f 5d3d ee91 d83c
00000210: 5c30 69bb 9151 8ebd 0eed c33c 4291 683c
00000220: 8295 85bc f5ec 50bd 2a6a 99bc 97b6 86bd
00000230: 4235 c3bc ca6d 4a3d 1770 ba3d 4746 97bd
00000240: 8669 c7bd e6a8 acbc 62d7 273a 0c9c 8d3d
00000250: 6f1e 5e3b 1eba 6abd b213 f8bb 0399 b0bd
00000260: fe43 e3bd 4d0d acbd f73b 4a3c 0ec8 34bc
00000270: 58d7 4bbb bd30 86bd 0c86 f43c 0b8b 57bd
00000280: 959f 803c 08e1 31bd 561f 55bc 9f8c 89bd
00000290: 877c 94bd 5cdc 11bd ccb2 953c e16a 6dbc
000002a0: 871c ba3d df06 0e3d 34f3 153c b45c b6bc
000002b0: 03c6 323d f317 343c 12e6 b23c a49b 2c3d
000002c0: 444d 2d3d 7f57 ba3c b846 1abd a191 92bd
000002d0: da5e 483d 943b a63d b755 543b 0ccb 9d3d
000002e0: 43f9 9b3c 366d a0bd d081 6fbd 1523 973d
000002f0: 2d67 d13d 9756 aabd aec7 72bd cfd4 d2bd
00000300: 92ce 88bd e35c 7c3d 55a7 9bbc 37b5 bfbc
00000310: 5266 7fbd 67b6 bdbc 5330 89bc 470f 19bd
00000320: 291c 853c c9ba b33a 7b35 2ebd 45f2 afbd
00000330: 596e 71bd 8a02 af3d 0113 e43d 7eec 1e3e
00000340: aa80 1e3c 3ed4 2bbd c884 ef3c 07e1 273e
00000350: 4168 613e b6b2 ff3d 31df bbba 9e31 0dbe
00000360: 7e11 00be 3a63 513d c27a 4b3e 270a 0c3e
00000370: b831 8abc 5fa6 15be f3cd 13be 1f03 4b3d
00000380: 6727 e73d 8a95 c43a 4cb3 c73d b903 143d
00000390: 4531 a1bd 458d 24be 47e3 92bd cb26 fd3d
000003a0: 36c4 af3d 5b28 173e 98cc f2bd b975 b7bd
000003b0: 92b3 7dbd 9a9b e6bc 1f52 de3d 4e0b 023d
000003c0: 87ea ffbd d98e c8bd 2e12 babc c65d 903d
000003d0: 7a5b 523d 08ed fb3c 2bf5 fdbc 0f9e 41bd
000003e0: 9c98 34bd 0722 dd3c 0a57 e7bb 8b72 4b3d
000003f0: 19c1 60bc 93dc 4abd 26b8 39bd cc46 a83c

bias f4 [20]
-0.011993665 -0.076587535 -0.016461138 0.051945273 -0.047744654 -0.038453072 0.006281858 -0.017277462
-0.024662536 -0.014600923 -0.040990103 0.060710188 -0.024025409 0.019381125 -0.013976437 0.045799613
0.029493159 -0.01410051 -0.029219974 0.049441986
00000000: 1481 44bc edd9 9cbd 82d9 86bc 91c4 543d
00000010: e68f 43bd f880 1dbd 0bd8 cd3b 7789 8dbc
00000020: 1609 cabc b638 6fbc 3de5 27bd 3fab 783d
00000030: efd0 c4bc 2ac5 9e3c 6dfd 64bc 6098 3b3d
00000040: a39b f13c d305 67bc ba5e efbc ae83 4a3d

weight f4 [50, 320]
0.077559695 0.05343606 0.060763024 -0.016574813 -0.04436859 0.00519128 0.04828159 -0.0032077704
-0.0076198056 -0.07664666 -0.1558111 -0.04337966 -0.048119597 0.016873157 -0.08503568 -0.021964733
-0.008509457 -0.08482222 -0.023805557 0.028907102 -0.0112217665 0.07652431 0.05496667 -0.055842545
-0.019996658 -0.0034032103 -0.052806262 -0.017710783 -0.004198075 -0.036732204 -0.083411634 0.007723689
0.03405319 0.056206584 -0.013481118 0.050862648 -0.04202816 0.052058302 0.010213243 0.005101017
-0.008153155 0.1043038 0.07783639 -0.04460188 0.0017712018 -0.0011712025 -0.0027303847 -0.0871571
-0.043693703 0.055989776 0.03085869 0.016837262 -0.057924695 0.032895695 -0.054354932 0.03903287
-0.09592445 -0.0356817 -0.02335738 -0.012482651 -0.052981928 -0.0002622329 0.08785311 -0.016409548
-0.01501234 0.019344494 0.058866166 0.010609514 -0.0011836765 0.044191852 0.017046643 0.015283724
0.022674678 -0.080488876 0.035344295 -0.0016509757 0.028190345 0.035637908 -0.05744757 -0.06857561
0.055582967 0.052156977 -0.0492042 -0.040650107 0.036623888 -0.067266665 -0.08529894 0.010977164
0.040031947 0.014592566 -0.076905936 -0.038892258 0.0021756906 -0.022791594 0.013026827 0.026705518
0.027020935 -0.050236415 0.050617505 0.04614558 0.05258178 -0.027104778 0.06862016 0.013974616
0.04693723 0.038976695 0.0009657159 -0.008518116 0.050316155 -0.027594859 -0.046215944 0.012396756
0.053908665 0.023677919 -0.07383238 0.020084621 0.05494168 -0.09315971 -0.01803542 -0.01906159
0.032820877 -0.11375142 -0.026612846 0.0018198955 -0.051808394 -0.044121206 0.034460343 0.14992136
0.004761598 0.07274341 0.010475814 0.050221182 -0.019354308 0.03290496 0.020945057 0.009253742
-0.016220212 0.006758476 0.010365357 -0.031929515 -0.01588057 0.061657574 -0.0010400738 -0.02948706
-0.009502729 0.059533797 0.057699677 0.0027561567 -0.008661932 0.02267371 0.054035515 0.03814553
-0.00839438 0.027997559 0.04328057 0.016483806 0.040165782 -0.06157871 0.009550367 0.02471118
0.020590182 -0.00744624 0.008091035 0.007438321 0.025180008 -0.04193974 0.030026074 0.033695772
0.069952205 0.013052606 0.021096447 0.040717877 0.021154424 0.023845477 0.03914806 0.003730182
0.018306177 0.00022799305 -0.04621837 0.046959367 0.017703084 0.0038659598 -0.04138536 -0.0025397483
0.09082992 0.05790054 0.024389002 0.019484738 0.069868945 -0.05275074 -0.07703563 0.041452643
0.021693418 0.016790435 0.077854596 0.07957899 -0.017758839 -0.10061089 -0.1423273 0.018566761
0.005974267 0.030974073 -0.055358354 0.058420595 0.023414569 0.068620235 0.0688406 0.025387445
0.02039692 0.0040667993 -0.029766113 0.07806791 0.0062940447 -0.01886543 -0.008075667 0.037233613
0.068168595 -0.0042874096 -0.0684066 0.020283472 0.068571106 -0.016049603 -0.10931498 -0.04416325
0.058898434 0.00094861473 -0.0575369 -0.004277093 0.0014312826 -0.04095201 -0.08721775 -0.034164723
0.1219793 -0.002781658 0.03254759 0.07437498 -0.0051294053 0.007001904 -0.023143452 0.08843002
0.005041491 0.037968848 -0.0016666873 -0.030382542 -0.038863868 0.042431954 -0.08260997 -0.062294386
0.03520931 -0.043513607 -0.06405212 -0.0625033 -0.050694462 -0.041936517 0.02248377 -0.010437779
00000000: 9ed7 9e3d c5df 5a3d a6e2 783d e7c7 87bc
00000010: d7bb 35bd 9d1b aa3b ebc2 453d 7539 52bb
00000020: 90af f9bb edf8 9cbd f28c 1fbe dfae 31bd
00000030: 0e19 45bd 9339 8a3c 3027 aebd 62ef b3bc
00000040: 406b 0bbc 46b7 adbd df03 c3bc 96ce ec3c
00000050: 80db 37bc c7b8 9c3d bb24 613d 27bb 64bd
00000060: 08d0 a3bc 6508 5fbb 614b 58bd 3416 91bc
00000070: 0190 89bb 8274 16bd b8d3 aabd 0017 fd3b
00000080: 5c7b 0b3d e038 663d e8df 5cbc 5a55 503d
00000090: b825 2cbd 163b 553d 7255 273c 6f26 a73b
000000a0: d094 05bc 3b9d d53d af68 9f3d 76b0 36bd
000000b0: ac27 e83a 0983 99ba 41f0 32bb 6c7f b2bd
000000c0: 2bf8 32bd 8955 653d 5dcb fc3c 4cee 893c
000000d0: 7242 6dbd a3bd 063d 47a3 5ebd eee0 1f3d
000000e0: 0a74 c4bd f926 12bd fa57 bfbc 0884 4cbc
000000f0: 9403 59bd 4e7c 89b9 55ec b33d 516d 86bc
00000100: 51f6 75bc 5878 9e3c a61d 713d 87d3 2d3c
00000110: 9825 9bba 8402 353d 67a5 8b3c 9668 7a3c
00000120: 3fc0 b93c 5ad7 a4bd 2ec5 103d 8d65 d8ba
00000130: 70ef e63c 0ef9 113d 254e 6bbd 5f71 8cbd
00000140: f7aa 633d 8ea2 553d 588a 49bd ba80 26bd
00000150: ee02 163d 1bc3 89bd 36b1 aebd 90d9 333c
00000160: 8af8 233d a815 6f3c dc80 9dbd 7d4d 1fbd
00000170: 0896 0e3b 70b5 babc 796e 553c 88c5 da3c
00000180: 025b dd3c b3c4 4dbd 4d54 4f3d 2603 3d3d
00000190: fe5f 573d d70a debc ba88 8c3d caf5 643c
000001a0: 4141 403d 07a6 1f3d 1928 7d3a 918f 0bbc
000001b0: 5018 4e3d 9d0e e2bc ee4c 3dbd c31b 4b3c
000001c0: 55cf 5c3d 32f8 c13c 6e35 97bd 8188 a43c
000001d0: 870a 613d 85ca bebd 04bf 93bc 0d27 9cbc
000001e0: 2f6f 063d 81f6 e8bd 2f03 dabc 8f89 ee3a
000001f0: 0a35 54bd 70b8 34bd 4a26 0d3d fc84 193e
00000200: 2e07 9c3b 7ffa 943d c0a2 2b3c bab4 4d3d
00000210: ed8c 9ebc 5ac7 063d f894 ab3c 029d 173c
00000220: 40e0 84bc 3576 dd3b 75d3 293c 86c8 02bd
00000230: f817 82bc a78c 7c3d 1653 88ba d98e f1bc
00000240: 56b1 1bbc b6d9 733d 7f56 6c3d a3a0 343b
00000250: c7ea 0dbc 37be b93c 5854 5d3d 7d3e 1c3d
00000260: 9588 09bc 235b e53c f846 313d 0c09 873c
00000270: e084 243d f539 7cbd 2479 1c3c 1a6f ca3c
00000280: beac a83c 97ff f3bb 4390 043c 29bd f33b
00000290: 4e46 ce3c 01c9 2bbd 3ef9 f53c 9404 0a3d
000002a0: 1a43 8f3d 99da 553c 75d2 ac3c cac7 263d
000002b0: 0b4c ad3c 9757 c33c b759 203d 1276 743b
000002c0: d6f6 953c 6b11 6f39 794f 3dbd 7758 403d
000002d0: 0f06 913c 0b5c 7d3b b283 29bd e871 26bb
000002e0: 0905 ba3d 1e29 6d3d 72cb c73c 759e 9f3c
000002f0: 7317 8f3d 2911 58bd dbc4 9dbd 3fca 293d
00000300: 65b6 b13c 188c 893c 3b72 9f3d 4ffa a23d
00000310: fc7a 91bc 150d cebd 3fbe 11be 5219 983c
00000320: c9c3 c33b 57bd fd3c 71bf 62bd 6f4a 6f3d
00000330: e9cf bf3c c488 8c3d 4dfc 8c3d 55f9 cf3c
00000340: 7117 a73c c942 853b 10d8 f3bc 12e2 9f3d
00000350: 463e ce3b ad8b 9abc cd4f 04bc 4682 183d
00000360: fa9b 8b3d 667d 8cbb c218 8cbd 8629 a63c
00000370: 026f 8c3d 757a 83bc 88e0 dfbd 86e4 34bd
00000380: 7c3f 713d 75ac 783a d0ab 6bbd db26 8cbb
00000390: e099 bb3a 4bbd 27bd 389f b2bd 4ff0 0bbd
000003a0: 49d0 f93d 7a4c 36bb 9f50 053d e951 983d
000003b0: 9214 a8bb 3a70 e53b 5697 bdbc cc1a b53d
000003c0: 1733 a53b 3985 1b3d bf74 daba cfe4 f8bc
000003d0: b82f 1fbd 21cd 2d3d 6a2f a9bd 6628 7fbd
000003e0: a337 103d 533b 32bd c22d 83bd bb01 80bd
000003f0: ffa4 4fbd a0c5 2bbd e22f b83c 3803 2bbc

bias f4 [50]
-0.008231589 -0.034819603 0.024098137 0.015892377 0.035859674 -0.030213954 0.028975695 -0.0070804837
0.050447714 0.00388376 0.0075321505 -0.029994022 -0.03183385 0.050547987 0.022215465 -0.024598192
0.028021043 0.028635526 0.045710437 -0.012254114 0.01933057 -0.03477922 -0.029188747 -0.037060242
0.0010624643 0.037228886 -0.053873096 -0.042909235 0.016758867 -0.010250258 -0.05459916 -0.0062451023
-0.032888394 -0.04579818 -0.01836481 -0.036294695 0.0076126917 -0.043554462 0.030356701 -0.038746398
0.031431552 -0.024411561 -0.025234926 0.010138858 -0.018988002 0.017435335 0.030771058 0.031567827
0.052192736 0.018554078
00000000: c9dd 06bc 009f 0ebd 7569 c53c bb30 823c
00000010: 98e1 123d 4183 f7bc 705e ed3c 6703 e8bb
00000020: 43a2 4e3d ae86 7e3b 42d0 f63b 06b6 f5bc
00000030: 3664 02bd 680b 4f3d 35fd b53c 2682 c9bc
00000040: 638c e53c 0d95 ea3c de3a 3b3d 7bc5 48bc
00000050: 255b 9e3c a874 0ebd 3d1d efbc 7bcc 17bd
00000060: 6342 8b3a 517d 183d 09aa 5cbd 98c1 2fbd
00000070: e449 893c b3f0 27bc 5ea3 5fbd b7a3 ccbb
00000080: fbb5 06bd df96 3bbd cc71 96bc bfa9 14bd
00000090: e373 f93b 2a66 32bd 9eae f83c 8bb4 1ebd
000000a0: 5fbe 003d c1fa c7bc 7ab9 cebc 741d 263c
000000b0: ba8c 9bbc 8cd4 8e3c 9613 fc3c 444d 013d
000000c0: 0dc8 553d b9fe 973c

weight f4 [10, 50]
0.10092195 -0.0838673 0.106628105 -0.11283443 -0.1931687 -0.26134753 -0.047568005 0.0017614805
-0.031118184 0.07039856 -0.15641934 -0.108778276 -0.044983905 0.05752534 0.11153541 -0.17224035
-0.15027954 -0.20285581 0.06554605 0.052939627 0.2548282 -0.018173888 0.20592956 -0.0397145
0.0054325303 -0.2998585 -0.04717784 -0.13228658 0.29037207 -0.029530294 0.17402798 -0.058547728
-0.1345738 -0.0018000202 0.12032762 0.089162305 0.2992651 -0.13042547 0.10115993 -0.23085722
0.34058642 0.025576841 0.0057745324 -0.012786589 0.0717147 -0.012239769 -0.0037972727 -0.017560659
-0.09864296 0.03493624 0.24695629 -0.0006593824 0.12924078 0.12002569 0.12211622 0.10721711
0.30572185 -0.08524784 -0.10059538 -0.11326666 -0.05038298 0.045080204 0.055324413 -0.28728443
0.20154335 0.008346481 -0.2159914 0.018083612 -0.05896639 0.0027401608 -0.16775692 0.1210627
0.027826224 0.12719777 -0.25923628 0.3172569 -0.12954448 -0.00010690711 -0.019036919 0.19287023
-0.15479708 -0.034886006 -0.092929944 0.16420884 -0.3597691 -0.064718634 0.10466137 0.2519412
-0.04037075 0.15614921 -0.22727272 -0.0069297175 -0.11490456 -0.18585983 -0.085024126 0.0022252176
-0.12627842 0.0035885437 0.23360518 0.1813798 0.33330828 -0.047243062 0.023579987 0.08820852
0.019358413 -0.102416895 0.295229 0.49530396 0.09812508 -0.12331855 0.098868646 0.12459133
-0.088332616 -0.04820498 0.07380571 -0.3006254 0.0140651455 0.03769641 -0.010802445 0.09364769
-0.24197893 0.06868181 -0.4137014 0.01674421 0.1491043 -0.10290642 0.12790455 0.037791755
0.089774035 -0.18780155 0.04913674 0.120836 -0.18552189 -0.11606867 -0.16302311 0.03904419
0.16910736 -0.0909109 -0.18938361 0.23605956 0.13174559 -0.16826726 -0.014999267 0.11645648
-0.048886053 -0.02389506 0.055552226 -0.013479278 -0.22363728 0.10822443 -0.14470658 -0.17608789
-0.047397062 -0.020175066 -0.17588161 0.0018659708 0.24132344 0.08863082 0.047185328 0.04753038
-0.11856855 -0.098257594 0.13034242 -0.2097738 -0.106382415 -0.011125416 0.26958093 -0.1598659
-0.102286346 0.019717515 0.057818033 -0.055134106 -0.13352917 -0.023867019 0.13150372 0.34846392
-0.08635553 0.056491382 -0.046949804 -0.21541126 0.11666056 -0.04324612 0.067912705 -0.016817534
0.30101392 0.11212527 -0.2851095 0.026789203 -0.22888611 -0.14706835 0.020527786 0.26281416
-0.010656743 -0.26413596 0.07274233 0.03668708 0.028393945 -0.20043819 0.073666364 -0.19093123
0.1840404 0.12147921 0.2890392 0.14051992 -0.21288335 0.15985943 -0.19081187 -0.15659688
0.17431633 -0.102746226 -0.025857786 -0.06613522 0.097854555 0.033349488 0.060449082 0.033130765
0.072669 -0.1852198 0.037658427 -0.16812247 -0.20733677 0.11151132 -0.068589665 0.04965347
0.01810865 -0.17852403 0.08809229 0.26105213 -0.2989211 0.1518894 -0.15700118 0.17779526
0.29891422 0.26030383 -0.19685853 -0.10249976 -0.06292987 0.080362916 0.12566742 0.08399986
0.22783656 -0.09259032 0.10149911 -0.116899244 -0.06172498 -0.032352228 0.05698631 0.1023087
-0.06670839 0.27126142 0.045640886 -0.20464537 0.123109475 -0.048700597 0.11532649 0.091181025
00000000: 2bb0 ce3d 9ec2 abbd d65f da3d bd15 e7bd
00000010: 04ce 45be 58cf 85be abd6 42bd 7ae1 e63a
00000020: 90eb febc 1f2d 903d 642c 20be 25c7 debd
00000030: 0b41 38bd b19f 6b3d ad6c e43d c65f 30be
00000040: e1e2 19be 6fb9 4fbe 023d 863d 39d7 583d
00000050: d878 823e 68e1 94bc 33df 523e acab 22bd
00000060: 5e03 b23b 0e87 99be 8d3d 41bd 2276 07be
00000070: a6ab 943e 84e9 f1bc 6434 323e becf 6fbd
00000080: b7cd 09be a8ee ebba 546e f63d ba9a b63d
00000090: 4639 993e 418e 05be f02c cf3d d665 6cbe
000000a0: 5861 ae3e 8686 d13c 4a38 bd3b d77e 51bc
000000b0: 28df 923d 5089 48bc aadb 78bb 5fdb 8fbc
000000c0: 5205 cabd 4e19 0f3d 1ce2 7c3e 67da 2cba
000000d0: b257 043e 07d0 f53d 1218 fa3d a594 db3d
000000e0: 9387 9c3e 6b96 aebd f304 cebd 5af8 e7bd
000000f0: 625e 4ebd 05a6 383d da9b 623d f216 93be
00000100: 6161 4e3e aebf 083c d92c 5dbe 1524 943c
00000110: be86 71bd 4594 333b 78c8 2bbe b9ef f73d
00000120: d2f3 e33c 2240 023e 9eba 84be 7f6f a23e
00000130: 4fa7 04be 5133 e0b8 50f3 9bbc c67f 453e
00000140: 2083 1ebe a1e4 0ebd 0e52 bebd 5d26 283e
00000150: a833 b8be 348b 84bd b358 d63d 70fe 803e
00000160: cd5b 25bd 94e5 1f3e 2eba 68be af12 e3bb
00000170: 1553 ebbd 0a52 3ebe 2121 aebd f5d4 113b
00000180: 214f 01be c62d 6b3b 3236 6f3e a0bb 393e
00000190: 62a7 aa3e f181 41bd d12a c13c aba6 b43d
000001a0: 8995 9e3c f3bf d1bd 4128 973e 7b98 fd3e
000001b0: cdf5 c83d 708e fcbd a57b ca3d bd29 ff3d
000001c0: bbe7 b4bd 9672 45bd 7327 973d 93eb 99be
000001d0: 7f71 663c 8d67 1a3d bdfc 30bc 5cca bf3d
000001e0: 53c9 77be 0ca9 8c3d abd0 d3be 272b 893c
000001f0: ccae 183e 9ac0 d2bd 69f9 023e 87cb 1a3d
00000200: 73db b73d 0d4f 40be 9b43 493d dd78 f73d
00000210: 73f9 3dbe 69b5 edbd 88ef 26be cdec 1f3d
00000220: 7b2a 2d3e 7e2f babd c7ed 41be 99b9 713e
00000230: 51e8 063e 414e 2cbe 7cbf 75bc bc80 ee3d
00000240: be3c 48bd 93bf c3bc bb8a 633d 31d8 5cbc
00000250: 2c01 65be c5a4 dd3d f62d 14be 6250 34be
00000260: 6c23 42bd 2e46 a5bc 4f1a 34be 9793 f43a
00000270: 7e1d 773e 1384 b53d 6745 413d 37af 423d
00000280: 11d4 f2bd 473b c9bd 7c78 053e f1ce 56be
00000290: 06df d9bd 6047 36bc 8306 8a3e e3b3 23be
000002a0: 817b d1bd a086 a13c 9ad2 6c3d 4dd4 61bd
000002b0: dfbb 08be c484 c3bc e9a8 063e dd69 b23e
000002c0: 2bdb b0bd 8263 673d 704e 40bd c594 5cbe
000002d0: bbeb ee3d d822 31bd d115 8b3d edc4 89bc
000002e0: 7f1e 9a3e efa1 e53d dff9 91be 0875 db3c
000002f0: 1f61 6abe 1699 16be e329 a83c 948f 863e
00000300: 9f99 2ebc d43c 87be eef9 943d 3145 163d
00000310: 6b9a e83c ab3f 4dbe 64de 963d 7a83 43be
00000320: 1675 3c3e 18ca f83d f2fc 933e 74e4 0f3e
00000330: 18fe 59be 31b2 233e 3064 43be ef5a 20be
00000340: fb7f 323e 9d6c d2bd b5d3 d3bc e771 87bd
00000350: f867 c83d 7999 083d 7599 773d 20b4 073d
00000360: 7cd3 943d 42aa 3dbe b93f 1a3d 4c28 2cbe
00000370: 1750 54be 0c60 e43d bd78 8cbd 7061 4b3d
00000380: 9758 943c 01cf 36be bb69 b43d a0a8 853e
00000390: 300c 99be e588 1b3e ebc4 20be f60f 363e
000003a0: 490b 993e 8b46 853e 4895 49be 65eb d1bd
000003b0: 60e1 80bd 5095 a43d f6ae 003e 1e08 ac3d
000003c0: fd4d 693e fe9f bdbd c4de cf3d df68 efbd
000003d0: 55d3 7cbd c583 04bd 7a6a 693d 3987 d13d
000003e0: 699e 88bd c7e2 8a3e f0f1 3a3d 8e8e 51be
000003f0: d220 fc3d 477a 47bd 4b30 ec3d 1ebd ba3d

bias f4 [10]
-0.02764296 -0.008552892 0.03001518 -0.074646175 -0.045350775 0.1352046 0.040672716 -0.06405289
0.055033404 -0.08248769
00000000: 7d73 e2bc 6e21 0cbc 65e2 f53c 18e0 98bd
00000010: bcc1 39bd 1373 0a3e 6f98 263d 292e 83bd
00000020: b56a 613d 4eef a8bd
